{
    "model_name": "AudioCNN",
    "test_accuracy": 0.8276374442793462,
    "test_loss": 0.4656186710716534,
    "model_structure": "AudioCNN(\n  (conv1): Conv1d(1, 32, kernel_size=(5,), stride=(1,), padding=(2,))\n  (bn1): BatchNorm1d(32, eps=1e-05, momentum=0.1, affine=True, track_running_stats=True)\n  (pool1): MaxPool1d(kernel_size=4, stride=4, padding=0, dilation=1, ceil_mode=False)\n  (conv2): Conv1d(32, 64, kernel_size=(3,), stride=(1,), padding=(1,))\n  (bn2): BatchNorm1d(64, eps=1e-05, momentum=0.1, affine=True, track_running_stats=True)\n  (pool2): MaxPool1d(kernel_size=4, stride=4, padding=0, dilation=1, ceil_mode=False)\n  (conv3): Conv1d(64, 128, kernel_size=(3,), stride=(1,), padding=(1,))\n  (bn3): BatchNorm1d(128, eps=1e-05, momentum=0.1, affine=True, track_running_stats=True)\n  (pool3): MaxPool1d(kernel_size=4, stride=4, padding=0, dilation=1, ceil_mode=False)\n  (conv4): Conv1d(128, 256, kernel_size=(3,), stride=(1,), padding=(1,))\n  (bn4): BatchNorm1d(256, eps=1e-05, momentum=0.1, affine=True, track_running_stats=True)\n  (pool4): MaxPool1d(kernel_size=4, stride=4, padding=0, dilation=1, ceil_mode=False)\n  (global_pool): AdaptiveAvgPool1d(output_size=1)\n  (dropout1): Dropout(p=0.3, inplace=False)\n  (dropout2): Dropout(p=0.5, inplace=False)\n  (fc1): Linear(in_features=256, out_features=512, bias=True)\n  (bn_fc): BatchNorm1d(512, eps=1e-05, momentum=0.1, affine=True, track_running_stats=True)\n  (fc2): Linear(in_features=512, out_features=6, bias=True)\n)"
}